AE/AE.pth (torch, 1985 bytes, 4 tensors)

encoder.0.weight f4 [4, 11]
000000 bf cf b2 3f 80 77 78 3d b1 09 b0 bf 81 52 fc bd
       1.3969649 0.06066084 -1.3752958 -0.12320424
000010 16 cd 56 bd ac 17 de bc 06 7f d7 bf b2 f4 1f bf
       -0.05244168 -0.027110897 -1.683564 -0.6248275
000020 87 ad 17 3e 31 96 78 3d 26 80 64 bd 07 0d 72 3e
       0.14812289 0.06069011 -0.055786274 0.23637782
000030 c0 95 a8 3d 58 4c f2 3d 5d 97 4f c0 99 42 ff bf
       0.082316875 0.11830968 -3.2436135 -1.9942199
000040 d6 47 0c c0 c2 66 23 bc 3a f1 a5 3c 6d e5 d1 3d
       -2.1918845 -0.00997323 0.020256627 0.102488376
000050 a7 a8 ae 3c b0 25 59 bb ef 1a 7d 3f 5c 6a 90 bc
       0.021320654 -0.0033134036 0.9886922 -0.017628841
000060 bc b9 d9 bf 7c 33 86 bf 94 f3 b0 3c be 70 50 3d
       -1.7009807 -1.0484462 0.021600522 0.05088877
000070 85 c5 dc 3f 36 52 57 bd b6 bc dd bc 7a fe 17 c0
       1.7247778 -0.052568637 -0.027067523 -2.374907
000080 80 e1 e7 bf 34 14 1f 40 08 6f 70 bf 2a c5 a3 3e
       -1.8115692 2.485608 -0.9391942 0.31986362
000090 96 9a 48 bd 9a 30 aa bd c5 0c be bd 2f c7 30 3d
       -0.04897555 -0.08310051 -0.09279779 0.043158706
0000a0 6d 46 b0 bb 80 98 28 c0 51 24 e8 3d 42 97 6e bd
       -0.005379489 -2.6343079 0.11335052 -0.05824972

encoder.0.bias f4 [4]
000000 d3 7c 3f 40 f7 20 08 40 e9 43 45 40 8f cd c2 3f
       2.9919937 2.127012 3.08227 1.5218982

decoder.0.weight f4 [11, 4]
000000 a8 52 ae 40 a5 ad 35 3f e2 64 a7 40 90 aa c2 40
       5.44759 0.70968086 5.231065 6.0833206
000010 c8 23 4a c0 bd fb 33 40 12 f9 01 c0 4c 26 35 c1
       -3.158434 2.81224 -2.030827 -11.32185
000020 fb 2a 29 c1 1f 44 17 40 bc 0a e7 c0 1d 9d ba 3f
       -10.572993 2.3635328 -7.2200603 1.4579197
000030 19 02 4d c0 da 48 3a c1 70 24 66 c0 07 5c 1f bf
       -3.203253 -11.642786 -3.595974 -0.622498
000040 c6 c6 5f bf e9 1d 5e c1 a1 0d 24 bf 25 4e c6 bf
       -0.8741268 -13.882302 -0.64083296 -1.5492598
000050 ce 68 4f be 6c 12 66 c1 5e d1 d9 be 52 4d b1 bf
       -0.20254824 -14.379498 -0.42542547 -1.3851721
000060 b5 11 63 c1 01 11 82 bf 09 64 dd 40 12 8e 03 c0
       -14.191823 -1.0161439 6.9184613 -2.0555463
000070 32 25 3e c1 c3 95 27 3f 31 ba cb bf a9 b3 18 c0
       -11.884081 0.65462893 -1.5916196 -2.3859656
000080 2b 7b bf be 0b 02 bf 3e b3 30 5b bf 99 4a 8e c1
       -0.37398657 0.37306246 -0.85621184 -17.786425
000090 43 b6 a3 3f bd 09 03 bf 07 f2 73 c1 eb 0a 9c 3f
       1.2789997 -0.51186734 -15.246589 1.2190832
0000a0 f9 68 48 c0 80 26 3e bf 57 b5 f0 c0 15 f7 5f c0
       -3.131407 -0.74277496 -7.522136 -3.4994557

decoder.0.bias f4 [11]
000000 cb c5 72 c1 36 bc e5 40 5d 20 bf 40 0a 58 a8 40
       -15.173289 7.179225 5.9727006 5.260747
000010 73 d2 32 41 cf 75 ac 40 2f d5 8c 40 a2 c4 a0 40
       11.176379 5.389381 4.4010234 5.024003
000020 fc 37 6a 40 fa 96 e0 40 25 e6 c5 40
       3.659667 7.0184298 6.184344
